data.pth (torch, 12887 bytes, 6 tensors)

l1.weight f4 [8, 209]
00000000: 94d7 c33e 4798 a03e c574 bebd 37b2 83be
00000010: 5dab 8e3e 6e68 2fbf 6e43 afbd 1c94 c0bd
00000020: 016e ab3d b873 593e f941 83bd e10c 9ebe
00000030: a9ff 133b adaa 8abe 5d4e 2b3f fd6b 0d3e
00000040: 58cc 7c3e ae13 013f 7289 51be c044 1e3f
00000050: 2a67 61be 755d 9f3e 2de6 fc3e 4bd4 f2bd
00000060: 9191 8dbd 118c 36bf 8105 0a3f 374f 8e3e
00000070: c899 6c3d f65e cb3e 8fae dabb 73ab 333f
00000080: 7d18 dd3d b947 103f 0401 78bd 1e30 a73d
00000090: 5486 a93c 8abb 0b3f 79ed f0be 510f 87bd
000000a0: 15e6 6a3e 8f2b babd 0a77 f7bc e0cd 8e3e
000000b0: 4e2f dbbe cfa9 61bf f0cb 183d 17a6 3fbf
000000c0: 6e56 46bd 9eed 023d 81da d1bd f3c1 573e
000000d0: cd03 c7bd 076c ee3e 3612 2f3f 2a1d 3a3f
000000e0: af55 f0be 2e02 ef3e 7527 05be 31af 85bd
000000f0: b24e fb3e 4b88 453f f5bb 0e3f 3e89 323e
00000100: b2c5 12be 4350 0ebd 0124 14bf 5f73 253f
00000110: e87d 08be 21b2 e4be 04d9 913e 6bc7 0abd
00000120: 0d0e 393f 5930 d33d 53a2 3b3f 0e06 b2bd
00000130: 66d4 9c3e d1ad 17bf f8bf 6dbe abcb d33d
00000140: d0af 02be 0f3f 213d f249 3b3f 5b65 603e
00000150: 6abf 83be bbf5 4e3e 360a 55bf dfd3 35bf
00000160: 265a 143f 0f97 d43e ea29 bfbe b09f 573d
00000170: 5726 13bf 612e 7a3e d7b0 543c e3e7 383f
00000180: f561 92be 84f1 babe ede4 34bf 6728 4a3f
00000190: 6e91 423f da56 673e c93a 8a3d 86aa b83e
000001a0: 6e05 10bd 080c 4d3d 8f5a ad3d 6598 6e3e
000001b0: e3b4 f2be 9a22 79bf 0f9d dfbd 8782 08bd
000001c0: 6c46 263e 6dcd 77be c7d5 c5bd b28e 03bd
000001d0: 362a c13d b75f f4bc f587 9f3f 0402 2e3f
000001e0: 4277 b93d f433 f43d 8930 383d ed66 03bd
000001f0: df45 00bf ef2c 7ebe 4241 86be e9b1 30bf
00000200: 8cbe ef3c b900 17bf 0593 193f 37cc dcbc
00000210: 33a1 173e 7f1a 78be 3a9f 423f 3fb0 143c
00000220: dffd 2c3f b680 843c 2da4 06be b9a3 a7be
00000230: a3b6 7a3c deff f7bd ec40 1ebf 266f 3abe
00000240: ca2a 40bd e65b f2bd cd48 bcbe 61d1 f93e
00000250: 146a 493f b432 b2bc e07b bd3e e642 673e
00000260: 6e3d 443d a564 423e 04dd 20bf 3662 8c3f
00000270: 31c0 e8be 68c6 403e ba4a 13be 9491 42bf
00000280: 6df5 88bf e0a6 5dbd 20cb bebe 935c aabe
00000290: 6a2d 893e c149 2cbf ed98 c93f cec9 86be
000002a0: ff65 693e 488f b63f a9eb a43c f7b4 b73f
000002b0: 6998 923e 0c0c a2bf 455a 6c3d 2858 5f3e
000002c0: 57d5 683e 4065 4f3e 53f5 72bd b144 bfbd
000002d0: 0494 cb3e cd06 e73d 6217 2bbe 60a2 323e
000002e0: 2f09 073d b6b3 87be d1fa 8ebd 4b0a 79bf
000002f0: bf77 0d3e 8612 633e 001d 573f 18d6 52bf
00000300: 4f8d f8be 27b6 883f 753f 783e dcfd c4bd
00000310: e123 a43e 6f6d 023f 9e88 0d3e 2657 b2bd
00000320: 5143 e83e 4467 e73d b6c8 7b3f b7df 043f
00000330: 5cf2 98be 4c50 c13b e6ba 083f b62c f53d
00000340: b728 513f 3539 0ebf ce8a 01bd b093 d73b
00000350: 66bf 273f 81f1 7a3d e94c 21bf 605f 703f
00000360: fe3b d23e bd7c 3e3c b089 26be 317f 5dbe
00000370: 9e63 843e c2ef 8d3e 84d0 b93e bb6b 59bf
00000380: 57a9 943d 6689 b83d f640 9f3c 4537 e33e
00000390: ef57 25bf 022a a5be 9787 47be 9133 f9be
000003a0: 1334 e33e 2e28 763c 22e1 82be 1bac b5be
000003b0: 4910 773d 6f32 2d3f e681 5e3e 1160 8d3f
000003c0: 9ead 24bf 208b e73b 49f8 093f f8da 213f
000003d0: e85c af3e 177b e5be fde3 f5be 8a49 903e
000003e0: e179 603e ae57 063f eb02 6bbd b104 5bbd
000003f0: 4794 c6be 6282 573f 55fc 413f 3e93 2b3e
0.3825041 0.31366178 -0.09299616 -0.25721905 0.27865115 -0.6851872 -0.08557783 -0.094032496
0.08370591 0.2123555 -0.06409068 -0.308692 0.0022582805 -0.2708334 0.6691645 0.13810726
0.24687326 0.50420654 -0.20462587 0.61823654 -0.2201201 0.3112599 0.4939436 -0.11856898
-0.0691253 -0.71307474 0.5391465 0.2779481 0.057763845 0.39720887 -0.006673641 0.70183486
0.107956864 0.5635944 -0.060547844 0.081634745 0.020693935 0.54583037 -0.47056177 -0.06594718
0.22939332 -0.090903394 -0.03020813 0.27891445 -0.42809528 -0.8814973 0.037303865 -0.7486281
-0.04842227 0.03196489 -0.102467544 0.2107008 -0.09717522 0.46566793 0.6838716 0.7270075
-0.4694037 0.4668135 -0.13003333 -0.06527556 0.49083477 0.7716109 0.5575555 0.17435166
-0.14333227 -0.034744512 -0.5786744 0.6462917 -0.1332928 -0.44667152 0.28485882 -0.033881586
0.72287065 0.10311956 0.7329456 -0.08692561 0.30630797 -0.592496 -0.23217762 0.10341581
-0.1276238 0.039366778 0.73159707 0.21913664 -0.25731975 0.20210926 -0.83218706 -0.71026415
0.57950056 0.415215 -0.37336665 0.052642524 -0.57480377 0.24431755 0.012981615 0.7222883
-0.2859036 -0.36512387 -0.70661813 0.789679 0.7600316 0.22591725 0.06749494 0.360676
-0.03516143 0.050060302 0.08464538 0.23300321 -0.4740363 -0.9731842 -0.109186284 -0.033327606
0.16237801 -0.24199457 -0.096599154 -0.032118507 0.09431879 -0.029830797 1.2463366 0.67971826
0.0905595 0.11923972 0.04496816 -0.03208058 -0.50106615 -0.24821828 -0.26221663 -0.6902147
0.029265665 -0.5898548 0.5998996 -0.026952846 0.14807586 -0.24228857 0.7602421 0.0090752235
0.67574877 0.016174655 -0.13148566 -0.32742098 0.015302333 -0.1210935 -0.6181781 -0.18206462
-0.046915807 -0.118339345 -0.36774293 0.48792556 0.7867749 -0.021752693 0.37008572 0.22584113
0.047910146 0.18983705 -0.62837243 1.0967472 -0.4545913 0.18825686 -0.14383975 -0.76003385
-1.0699898 -0.054114223 -0.37264347 -0.33273754 0.2679246 -0.6730004 1.5749794 -0.2632584
0.22792815 1.4262476 0.020131903 1.4352101 0.28631905 -1.2659926 0.057703275 0.21810973
0.22737633 0.20253468 -0.05931599 -0.09339274 0.39761364 0.11280594 -0.16708139 0.17444754
0.032967743 -0.26504296 -0.06981433 -0.9728133 0.13815211 0.22175035 0.84028625 -0.8235793
-0.4854531 1.0680588 0.24242957 -0.09618732 0.32058623 0.5094823 0.13821647 -0.087080285
0.45363858 0.11298993 0.98353136 0.5190386 -0.29872406 0.0058994647 0.53410184 0.119714186
0.8170275 -0.5555604 -0.031626515 0.006578885 0.65526426 0.061265472 -0.6300798 0.9389553
0.41061395 0.01162642 -0.16263461 -0.21630551 0.25857252 0.27721983 0.36291897 -0.8493001
0.072588615 0.09010582 0.019440155 0.44378105 -0.645873 -0.32258612 -0.19485317 -0.48672155
0.44375667 0.015024228 -0.25562388 -0.3548287 0.060318265 0.6765508 0.2172924 1.1044942
-0.6432742 0.0070661455 0.5389448 0.63224745 0.3425057 -0.44820473 -0.48025504 0.28181106
0.21921493 0.5247754 -0.05737583 -0.05347127 -0.38785002 0.84183323 0.75775653 0.16755387

l1.bias f4 [8]
00000000: 72bf 613f 1cda 7c3f 3893 c23f 187e 903f
00000010: 8970 493f 21e2 413f 87d8 8b3f c72b 6f3f
0.8818275 0.9877031 1.5201178 1.1288481 0.7868734 0.7573567 1.0925454 0.93426174

l2.weight f4 [8, 8]
00000000: cc9b 0040 cbae bbbf e197 ea3e 6f2f 13be
00000010: 7734 b73f 50f1 0840 ab25 8dbf c21b e93f
00000020: 988d 003f 0269 f5be 172e 1240 a02b bdbf
00000030: 8adc cbbe 32de 753d b1bb 0940 f20f cb3f
00000040: b243 ce3f 9371 6c3f 98a0 81be 8b03 c23f
00000050: 978f 013f ca91 f43f 829b ab3f 070b f8bf
00000060: 0c53 28bf 2435 b43e edb9 9d3e 46eb 01c0
00000070: a0c8 ca3f 7eb2 043e 3262 f83f 4013 8f3f
00000080: 048b 1a40 4b88 6bbf 96f2 0f3f 65ff 2cbe
00000090: 4d7a 8c3f b9e2 1740 68a4 5dbf b61d cabe
000000a0: 9356 973f eec4 863f 2479 f73f 27ca 0940
000000b0: 753b e3bf b5f3 d1be 533b 73be a771 373f
000000c0: 907b bbbf f478 2e40 8cd1 9cbe 6550 1a40
000000d0: bd47 1e40 9fbd a8bd 0258 67bf dfd7 d03f
000000e0: 4a31 c73f 40de ba3f e09f 233d e2c7 c2bc
000000f0: 4651 243f 1b71 8b3f 657e e63f 3d66 02c0
2.009509 -1.4662718 0.45819 -0.14373563 1.4312886 2.1397285 -1.102712 1.8211596
0.50216055 -0.47931677 2.284063 -1.4778938 -0.39816695 0.060026355 2.1520808 1.5864241
1.6114409 0.923608 -0.25317836 1.5157331 0.50609726 1.9106991 1.3406832 -1.9378365
-0.6575172 0.35196793 0.30805913 -2.029985 1.5842476 0.12958714 1.9404967 1.117775
2.4147348 -0.9200484 0.5622953 -0.168943 1.0974823 2.373213 -0.8657899 -0.39475793
1.1823295 1.0528848 1.9333844 2.1529634 -1.775252 -0.41006246 -0.23753099 0.71657795
-1.4647083 2.7261324 -0.30628622 2.411157 2.4731286 -0.08239292 -0.90368664 1.6315879
1.5561917 1.4599075 0.03994739 -0.023776952 0.64186513 1.0893892 1.8007323 -2.0374901

l2.bias f4 [8]
00000000: 950d c73e ecb0 653f 94d4 ad3e e636 003e
00000010: 7a97 693e ba78 4a3f eed0 d23e af3c 903a
0.3887755 0.89723086 0.33951247 0.12520942 0.2281169 0.79090464 0.41175026 0.0011004413

l3.weight f4 [22, 8]
00000000: d6e1 113f c106 6dbd 5601 53bf e98e 51c0
00000010: ec70 0b3f 08fa e43e 6ddb 92be a00e bebf
00000020: fc80 0ebf cd9a 7cbf 93a4 d03e 6188 23c0
00000030: c190 093e 6821 a93e 208e debe 466a 173f
00000040: 2dc6 03c0 90e5 2c3f d148 60bf 5c12 a73e
00000050: 62d0 04c0 6df8 063f 9fe1 dabe c08b 5c3d
00000060: a66c bbbd c2d7 aabf 82f4 963e 8c85 033e
00000070: 1c80 453e a0d8 e9bf 5f89 d4bd 3eab eb3e
00000080: 0b99 dcbf 3cbf a4bf 0385 db3e 12fc 403e
00000090: 866f d3bf aa13 ecbf 8637 083f efa6 7c3f
000000a0: a75e 193d 64bd f6bf fd7d 3cbf 3625 b63c
000000b0: 61e8 17c0 c2c2 623b 45ff 963f a197 15c0
000000c0: 2ef9 7b3c 3ce2 983f 2d50 c3bf 41e8 003f
000000d0: bcce 05c0 42cb b13e 6eca b2bf b8fe fbbf
000000e0: 26c7 a7bc 6115 c6bf fa6c d9bc 22b8 61c0
000000f0: cd92 75be 6ee2 a33e 2c52 163f 5e7a 60bf
00000100: 3786 bdbe 67cc 8d3e a957 7abe 14f6 11bf
00000110: ed25 dcbe 16cd 81bd e4a6 acbd 14ca 1fbe
00000120: cd14 573e eef6 ab3e 2c07 ce3e 81a6 263f
00000130: f1f7 523e 692e 03c0 30f8 33c0 fd9c 8c3e
00000140: 27c7 13c0 288c d8bd d00e 273f 6d45 81bf
00000150: 508e f5bf 2a30 0c3f 80f2 2bbf 2059 753f
00000160: 64c1 f5bf 876f 823e 73b7 05bf 9323 6b3f
00000170: 49aa 1bc0 1718 a2bf b6e4 a13e 1047 4a3e
00000180: 33b7 11c0 49a7 d7bf 5aa4 2e3f c66c 35c0
00000190: 5799 27c0 5e6d 0a3f 8ac8 493f 55eb 533d
000001a0: d9d7 d0be 1051 333e d0ab 103f d580 11c0
000001b0: 1c59 933e 336f 453f 4a24 23c0 a58b 153e
000001c0: b054 afbf 1837 993e 6bd8 9e3e 7226 063f
000001d0: c428 adbe fb46 a9bf d425 16bf 0536 1e3f
000001e0: b257 3ebe 9b29 0b3c fd1d ecbe ce1b 29c0
000001f0: 3b11 ccbf 6d15 893f 90f6 413e c837 2ec0
00000200: 6eb8 ef3e 8851 ffbe 010f cf3d ac5c 70bf
00000210: 607d 803f eb59 25bf 14b2 79bf 4391 5bbe
00000220: 12e5 5cbe d267 193f 0e87 f6bf ac37 9d3e
00000230: 7bfa 02c0 2bd9 76be 8580 fa3e a924 82bf
00000240: 69d0 cc3e 1e88 b23e 87eb 58bf c545 0b3f
00000250: bad8 a13e 4ae1 84bc 804f ffbf 3142 29bf
00000260: dfb7 2b3f 6e93 643d e177 49bf 08f3 0c3e
00000270: b268 773e f102 b1bf b06a 373d 1d95 c8bf
00000280: a837 1f3f e925 703e c9d3 24c0 fd03 65bf
00000290: fad7 cc3e 478a 523f 02a5 b4bf 68d9 23c0
000002a0: 4181 483f 5406 2bc0 83ec ca3e 4b1d 1ac0
000002b0: 8d40 033f 5784 57bf 0d2b 893d d200 b9be
0.56985223 -0.05786777 -0.82423913 -3.2743475 0.5446918 0.4472201 -0.28683034 -1.4848213
-0.55665565 -0.9867371 0.4075056 -2.555199 0.13434125 0.330333 -0.43467808 0.59146535
-2.0589707 0.67537785 -0.8761111 0.32631195 -2.0752187 0.5272282 -0.4275026 0.053844213
-0.091515824 -1.3347094 0.2948342 0.12843913 0.19287151 -1.8269234 -0.10377764 0.46029085
-1.7234205 -1.287086 0.42874917 0.18846157 -1.6518409 -1.8443501 0.5320972 0.9869222
0.037443783 -1.9276547 -0.7362974 0.02223454 -2.3735583 0.0034600948 1.1796652 -2.3373797
0.015379233 1.1944041 -1.5258843 0.5035439 -2.090743 0.34725386 -1.3968027 -1.9687109
-0.020480704 -1.5475274 -0.026541222 -3.5268636 -0.23981781 0.3200869 0.58719134 -0.8768672
-0.3701646 0.2769501 -0.24447502 -0.5701611 -0.42997685 -0.06337945 -0.08430269 -0.1560443
0.21004029 0.3358683 0.40239847 0.65097815 0.20602395 -2.0497077 -2.8120232 0.27463523
-2.3090303 -0.10573608 0.6525698 -1.0099312 -1.9184055 0.5476099 -0.671669 0.9583912
-1.9199643 0.25475714 -0.52233046 0.91851157 -2.4322684 -1.2663602 0.31619805 0.1975367
-2.2768066 -1.6847926 0.6821953 -2.834764 -2.6187341 0.5407313 0.78821623 0.051738102
-0.4078968 0.17511392 0.56512165 -2.2734883 0.28778923 0.771228 -2.54909 0.14604051
-1.369772 0.29924846 0.3102449 0.5240241 -0.33820164 -1.3224787 -0.5865147 0.6180118
-0.1858814 0.008493806 -0.4611663 -2.642322 -1.5942758 1.0709664 0.18941712 -2.7221546
0.46820396 -0.4986689 0.10110284 -0.93891406 1.0038261 -0.6459033 -0.9753735 -0.21442132
-0.21571758 0.5992404 -1.9259965 0.30706537 -2.046538 -0.2410628 0.48926178 -1.0167438
0.40002754 0.34869474 -0.84734386 0.54403335 0.31610662 -0.016220707 -1.9946136 -0.66116625
0.6707744 0.055804662 -0.78698546 0.13764584 0.24161032 -1.3829023 0.04477948 -1.5670506
0.621943 0.23451962 -2.5754263 -0.8945921 0.40008527 0.82242244 -1.4112856 -2.5601444
0.78322226 -2.6722612 0.3963357 -2.408038 0.5127037 -0.8418631 0.066976644 -0.36133438

l3.bias f4 [22]
00000000: 2762 243c af19 18bf c596 aebe f188 14bf
00000010: fac7 a83e 18d3 193f fbff ee3e 5db1 d43c
00000020: f3ea b4bc 9d99 8abd 0cfc bb3e c672 0f3d
00000030: daef a63d 53a9 c33d dd38 fdbe 7a54 8b3e
00000040: eabc b0bd 0411 1fbd 6baa 6a3d be6f bbbe
00000050: bcb9 94bd 1bc9 debe
0.010033167 -0.5941419 -0.34099403 -0.58021456 0.3296507 0.6008773 0.46679673 0.02596348
-0.022084689 -0.06767581 0.36715734 0.035021566 0.08151217 0.095537804 -0.49457446 0.27212888
-0.086297825 -0.038834587 0.05729143 -0.3660869 -0.072619885 -0.43512806
